Plotting labels...
[34m[1mautoanchor: [39m[22mAnalyzing anchors... anchors/target = 10.77, Best Possible Recall (BPR) = 1.0000
Overriding model.yaml nc=10 with nc=4
                 from  n    params  module                                  arguments
  0                -1  1      8800  models.common.Conv                      [3, 80, 6, 2, 2]
  1                -1  1    115520  models.common.Conv                      [80, 160, 3, 2]
  2                -1  4    309120  models.common.C3                        [160, 160, 160, 4]
  3                -1  1    461440  models.common.Conv                      [160, 320, 3, 2]
  4                -1  8   2259200  models.common.C3                        [320, 320, 320, 8]
  5                -1  1   1844480  models.common.Conv                      [320, 640, 3, 2]
  6                -1 12  13125120  models.common.C3                        [640, 640, 640, 12]
  7                -1  1   7375360  models.common.Conv                      [640, 1280, 3, 2]
  8                -1  4  28288640  models.common.C3TR                      [1280, 1280, 4]
  9                -1  1   9020803  models.common.SPPAGSCEP                 [1280, 1280]
 10                -1  1    820480  models.common.Conv                      [1280, 640, 1, 1]
 11                -1  1         0  torch.nn.modules.upsampling.Upsample    [None, 2, 'nearest']
 12           [-1, 6]  1         0  models.common.Concat                    [1]
 13                -1  4   5332480  models.common.C3                        [1280, 640, 640, 4, False]
 14                -1  1    205440  models.common.Conv                      [640, 320, 1, 1]
 15                -1  1         0  torch.nn.modules.upsampling.Upsample    [None, 2, 'nearest']
 16           [-1, 4]  1         0  models.common.Concat                    [1]
 17                -1  4   1335040  models.common.C3                        [640, 320, 320, 4, False]
 18                -1  1     51520  models.common.Conv                      [320, 160, 1, 1]
 19                -1  1         0  torch.nn.modules.upsampling.Upsample    [None, 2, 'nearest']
 20           [-1, 2]  1         0  models.common.Concat                    [1]
 21                -1  1    154240  models.common.SPP                       [320, 160, [5, 9, 13]]
 22                -1  4    309120  models.common.C3                        [160, 160, 160, 4, False]
 23                -1  1      3298  models.common.CBAM                      [160, 160]
 24                -1  1    230720  models.common.Conv                      [160, 160, 3, 2]
 25       [-1, 18, 4]  1         0  models.common.Concat                    [1]
 26                -1  1    615680  models.common.SPP                       [640, 320, [5, 9, 13]]
 27                -1  4   1232640  models.common.C3                        [320, 320, 320, 4, False]
 28                -1  1     12898  models.common.CBAM                      [320, 320]
 29                -1  1    922240  models.common.Conv                      [320, 320, 3, 2]
 30       [-1, 14, 6]  1         0  models.common.Concat                    [1]
 31                -1  1   2460160  models.common.SPP                       [1280, 640, [3, 7, 11]]
 32                -1  4   4922880  models.common.C3                        [640, 640, 640, 4, False]
 33                -1  1     51298  models.common.CBAM                      [640, 640]
 34                -1  1   3687680  models.common.Conv                      [640, 640, 3, 2]
 35          [-1, 10]  1         0  models.common.Concat                    [1]
 36                -1  1   4099840  models.common.SPP                       [1280, 1280, [3, 5, 7]]
 37                -1  4  28288640  models.common.C3TR                      [1280, 1280, 4, False]
 38                -1  1    204898  models.common.CBAM                      [1280, 1280]
 39  [23, 28, 33, 38]  1     86544  models.yolo.Detect                      [4, [[7, 9, 9, 17, 17, 15, 13, 27], [21, 28, 36, 18, 23, 47, 35, 33], [58, 29, 43, 60, 82, 46, 66, 88], [133, 77, 111, 135, 206, 137, 197, 290]], [160, 320, 640, 1280]]
Model Summary: 831 layers, 117836219 parameters, 117836219 gradients
Transferred 547/978 items from yolov5x.pt
Scaled weight_decay = 0.0005
[34m[1moptimizer:[39m[22m SGD with parameter groups 139 weight, 230 weight (no decay), 175 bias
…
